app/src/main/assets/hey_jarvis_optimized.tflite (tflite, 905040 bytes, 6 tensors)

tfl.pseudo_qconst1 i1 [2, 64]
00000000: 1bc7 1501 6eba 0306 512b a3cd 2cf0 05f6
00000010: d2f2 462d b99c e1a0 37c2 4dcc c4f7 95d7
00000020: 3e15 d16c 6441 1354 10eb 86e2 81f3 97e9
00000030: d690 2ec8 a726 3663 e6a5 ecd0 b438 e846
00000040: 15e4 2823 69b3 0708 3f13 99e8 2bbb fdef
00000050: f7cc 3e12 b898 ccb8 47c0 61d5 d1f3 b5d0
00000060: 4507 e346 6356 363f 29f5 94c8 8109 b6db
00000070: e59b 1ad7 922c 435c 0aa6 faeb b6c4 d916
27 -57 21 1 110 -70 3 6
81 43 -93 -51 44 -16 5 -10
-46 -14 70 45 -71 -100 -31 -96
55 -62 77 -52 -60 -9 -107 -41
62 21 -47 108 100 65 19 84
16 -21 -122 -30 -127 -13 -105 -23
-42 -112 46 -56 -89 38 54 99
-26 -91 -20 -48 -76 56 -24 70
21 -28 40 35 105 -77 7 8
63 19 -103 -24 43 -69 -3 -17
-9 -52 62 18 -72 -104 -52 -72
71 -64 97 -43 -47 -13 -75 -48
69 7 -29 70 99 86 54 63
41 -11 -108 -56 -127 9 -74 -37
-27 -101 26 -41 -110 44 67 92
10 -90 -6 -21 -74 -60 -39 22

tfl.pseudo_qconst3 i1 [64, 128]
00000000: 48d9 22a3 10d8 dd51 ef79 dfed ea2e d6b5
00000010: 99ee 2bf2 f501 d13f f70e 2e81 3a15 f1fd
00000020: b401 020c 9fbe 26be fce3 1525 ddcf ead5
00000030: d8f9 14d7 1dd3 4eb1 d0f4 d5de 0635 e6ff
00000040: e113 c802 e902 04fa b3d5 f0eb 54fa fbe3
00000050: a135 d105 39fa 64ed 2e0d 56ca e91a d611
00000060: 1aba 2a2f 46db ec15 a0e7 f14e f0d4 dff4
00000070: dc11 b3ab cbfd aec1 28f9 9df0 1d18 d3a6
00000080: 1c10 dbe3 2c44 11da 2e0f b1ef d401 f71d
00000090: ddb8 2ae3 17e8 ef97 200f 11db c3e6 0216
000000a0: 08dd 05c9 db8f 2b34 c913 1332 b3b6 f5da
000000b0: 00f0 0627 cf15 fbd3 d8ca a7a2 d6f9 d2cd
000000c0: 2354 ad0a 2c16 ccc5 24ff 052d 1c24 1edc
000000d0: a2ee e703 d202 08da 28a2 2181 f703 cbc0
000000e0: ebee 20e8 e702 cd15 f7e4 19f6 d401 0006
000000f0: 3c11 daff f3e4 fa22 3125 caf0 c8d7 e308
72 -39 34 -93 16 -40 -35 81
-17 121 -33 -19 -22 46 -42 -75
-103 -18 43 -14 -11 1 -47 63
-9 14 46 -127 58 21 -15 -3
-76 1 2 12 -97 -66 38 -66
-4 -29 21 37 -35 -49 -22 -43
-40 -7 20 -41 29 -45 78 -79
-48 -12 -43 -34 6 53 -26 -1
-31 19 -56 2 -23 2 4 -6
-77 -43 -16 -21 84 -6 -5 -29
-95 53 -47 5 57 -6 100 -19
46 13 86 -54 -23 26 -42 17
26 -70 42 47 70 -37 -20 21
-96 -25 -15 78 -16 -44 -33 -12
-36 17 -77 -85 -53 -3 -82 -63
40 -7 -99 -16 29 24 -45 -90
28 16 -37 -29 44 68 17 -38
46 15 -79 -17 -44 1 -9 29
-35 -72 42 -29 23 -24 -17 -105
32 15 17 -37 -61 -26 2 22
8 -35 5 -55 -37 -113 43 52
-55 19 19 50 -77 -74 -11 -38
0 -16 6 39 -49 21 -5 -45
-40 -54 -89 -94 -42 -7 -46 -51
35 84 -83 10 44 22 -52 -59
36 -1 5 45 28 36 30 -36
-94 -18 -25 3 -46 2 8 -38
40 -94 33 -127 -9 3 -53 -64
-21 -18 32 -24 -25 2 -51 21
-9 -28 25 -10 -44 1 0 6
60 17 -38 -1 -13 -28 -6 34
49 37 -54 -16 -56 -41 -29 8

tfl.pseudo_qconst5 i1 [128, 6144]
00000000: 0410 000a fcfe f7ff 0306 00fc 0400 f505
00000010: fe01 0700 fe0f f300 0103 05f9 040a 02ff
00000020: 0906 fd11 0606 0405 fc00 fe02 0401 0104
00000030: 0204 0a05 06fd fd03 fafe 0606 03ff fc0e
00000040: 0a01 0804 0903 fcfd 0904 05fc fbdb 0104
00000050: 0103 fd02 0dfe 02c6 0302 f402 0101 0c09
00000060: fdff f510 f6fe feeb ff0d 02fd ff04 01ff
00000070: 0100 01ff 0f05 0415 0efe 0f00 fd04 1606
00000080: fe00 fe1d 0406 18f2 2309 02fd cefc e808
00000090: fffd 0300 ff05 0d01 0103 fc04 0203 fe02
000000a0: 0d07 0737 0307 04f7 01fe ff07 03f0 18fb
000000b0: fe02 01ff fd05 0105 0a03 f8e2 020a fbe3
000000c0: ff02 00f3 14fc fefc 0606 0206 08d7 fe04
000000d0: 0208 04fc fc01 16f3 df13 fcfe fc07 fdfe
000000e0: 00fe 0d01 1204 fd23 1e0f 0f05 0700 03ff
000000f0: fdfd fd02 0304 fc02 0700 1c05 ff02 ff00
4 16 0 10 -4 -2 -9 -1
3 6 0 -4 4 0 -11 5
-2 1 7 0 -2 15 -13 0
1 3 5 -7 4 10 2 -1
9 6 -3 17 6 6 4 5
-4 0 -2 2 4 1 1 4
2 4 10 5 6 -3 -3 3
-6 -2 6 6 3 -1 -4 14
10 1 8 4 9 3 -4 -3
9 4 5 -4 -5 -37 1 4
1 3 -3 2 13 -2 2 -58
3 2 -12 2 1 1 12 9
-3 -1 -11 16 -10 -2 -2 -21
-1 13 2 -3 -1 4 1 -1
1 0 1 -1 15 5 4 21
14 -2 15 0 -3 4 22 6
-2 0 -2 29 4 6 24 -14
35 9 2 -3 -50 -4 -24 8
-1 -3 3 0 -1 5 13 1
1 3 -4 4 2 3 -2 2
13 7 7 55 3 7 4 -9
1 -2 -1 7 3 -16 24 -5
-2 2 1 -1 -3 5 1 5
10 3 -8 -30 2 10 -5 -29
-1 2 0 -13 20 -4 -2 -4
6 6 2 6 8 -41 -2 4
2 8 4 -4 -4 1 22 -13
-33 19 -4 -2 -4 7 -3 -2
0 -2 13 1 18 4 -3 35
30 15 15 5 7 0 3 -1
-3 -3 -3 2 3 4 -4 2
7 0 28 5 -1 2 -1 0

tfl.pseudo_qconst7 i1 [128, 3, 3, 64]
00000000: e00e 0cb1 fd06 11f9 cebf 11e8 a9db e917
00000010: 22e9 d0e1 10bf f1e0 d8ae 03d7 caf3 051a
00000020: 03e5 d1e1 081a ecd8 fb27 1cd3 d10d 29c4
00000030: 1711 f323 dbe5 aaff f6fe 2921 fa09 dfe3
00000040: b7bf d605 fde5 01fa cdf7 feec f203 2bd3
00000050: 19f7 2aeb e7d8 ebe8 cbe4 151f c428 d424
00000060: 0eef b9d0 22f9 12ba 1bea f1d8 2a29 29d7
00000070: 23e5 e627 c320 f1cc c7f6 e0f4 cfff 0be8
00000080: d9fa abbe ceb0 09eb f8d7 d4d5 b8ef 120f
00000090: f70a e0d6 9de8 3edf c2e0 aec0 ef00 faec
000000a0: d9f2 09ff d5e2 f3f3 b1e0 e912 29ea f9d8
000000b0: 23d1 c7fb fad0 d3f4 230f f803 d5e9 10ca
000000c0: b0c2 ed0b c7cb 2e46 dbbf 2b07 01e2 ef00
000000d0: 0bc7 2a16 e5fa 0111 cbc4 ed01 29d1 bee1
000000e0: ea2f f5d0 c2fb d4e4 d5d4 2fcd f7ff e7d2
000000f0: d4fb 1529 2629 0f18 d542 c9e1 f0ea eae4
-32 14 12 -79 -3 6 17 -7
-50 -65 17 -24 -87 -37 -23 23
34 -23 -48 -31 16 -65 -15 -32
-40 -82 3 -41 -54 -13 5 26
3 -27 -47 -31 8 26 -20 -40
-5 39 28 -45 -47 13 41 -60
23 17 -13 35 -37 -27 -86 -1
-10 -2 41 33 -6 9 -33 -29
-73 -65 -42 5 -3 -27 1 -6
-51 -9 -2 -20 -14 3 43 -45
25 -9 42 -21 -25 -40 -21 -24
-53 -28 21 31 -60 40 -44 36
14 -17 -71 -48 34 -7 18 -70
27 -22 -15 -40 42 41 41 -41
35 -27 -26 39 -61 32 -15 -52
-57 -10 -32 -12 -49 -1 11 -24
-39 -6 -85 -66 -50 -80 9 -21
-8 -41 -44 -43 -72 -17 18 15
-9 10 -32 -42 -99 -24 62 -33
-62 -32 -82 -64 -17 0 -6 -20
-39 -14 9 -1 -43 -30 -13 -13
-79 -32 -23 18 41 -22 -7 -40
35 -47 -57 -5 -6 -48 -45 -12
35 15 -8 3 -43 -23 16 -54
-80 -62 -19 11 -57 -53 46 70
-37 -65 43 7 1 -30 -17 0
11 -57 42 22 -27 -6 1 17
-53 -60 -19 1 41 -47 -66 -31
-22 47 -11 -48 -62 -5 -44 -28
-43 -44 47 -51 -9 -1 -25 -46
-44 -5 21 41 38 41 15 24
-43 66 -55 -31 -16 -22 -22 -28

tfl.pseudo_qconst9 i1 [64, 3, 3, 32]
00000000: 1525 05cc c0ff 721c 5181 215f 5b1f 6365
00000010: 7c4b 2abb eb22 44d2 3dd7 1ec6 f019 026a
00000020: 1918 1c1a 2112 2500 03fb cbf9 0430 34e1
00000030: 30fe 0609 0a2d 010c 2ef3 0212 ed04 c4c8
00000040: 1e26 0366 391a c86e b947 ed8f 1c42 1227
00000050: b7d7 5f2d fa34 3d33 437b ebdf 0f29 10f8
00000060: fbee ebc7 9fec 32de 3798 0b3f 35e5 1627
00000070: 340b 14aa 00db 20ce efc1 05c7 dd0c 0112
00000080: f4e7 f605 12e1 30d7 ea02 cb1e 11d2 e0f7
00000090: 3df3 f8da f7be ec1a d2df e823 19de 36ed
000000a0: dfff cdfb c9fa aed6 bc14 dcce f13a b225
000000b0: b3c2 fde9 c1d5 de0b f7f1 e7c7 f9da f31b
000000c0: 04ec f5e5 b016 08f6 20e6 f1fa 05fe 19f5
000000d0: 1dde 07ca d7df f430 d6dd 17cf 0aed 3400
000000e0: 22df 3912 fcef fef1 b4fc a60d ecf6 ce47
000000f0: 09f8 d721 1ad8 d724 e2d5 d71b 17f0 2f10
21 37 5 -52 -64 -1 114 28
81 -127 33 95 91 31 99 101
124 75 42 -69 -21 34 68 -46
61 -41 30 -58 -16 25 2 106
25 24 28 26 33 18 37 0
3 -5 -53 -7 4 48 52 -31
48 -2 6 9 10 45 1 12
46 -13 2 18 -19 4 -60 -56
30 38 3 102 57 26 -56 110
-71 71 -19 -113 28 66 18 39
-73 -41 95 45 -6 52 61 51
67 123 -21 -33 15 41 16 -8
-5 -18 -21 -57 -97 -20 50 -34
55 -104 11 63 53 -27 22 39
52 11 20 -86 0 -37 32 -50
-17 -63 5 -57 -35 12 1 18
-12 -25 -10 5 18 -31 48 -41
-22 2 -53 30 17 -46 -32 -9
61 -13 -8 -38 -9 -66 -20 26
-46 -33 -24 35 25 -34 54 -19
-33 -1 -51 -5 -55 -6 -82 -42
-68 20 -36 -50 -15 58 -78 37
-77 -62 -3 -23 -63 -43 -34 11
-9 -15 -25 -57 -7 -38 -13 27
4 -20 -11 -27 -80 22 8 -10
32 -26 -15 -6 5 -2 25 -11
29 -34 7 -54 -41 -33 -12 48
-42 -35 23 -49 10 -19 52 0
34 -33 57 18 -4 -17 -2 -15
-76 -4 -90 13 -20 -10 -50 71
9 -8 -41 33 26 -40 -41 36
-30 -43 -41 27 23 -16 47 16

tfl.pseudo_qconst11 i1 [32, 3, 3, 1]
00000000: 46e1 afa8 1c37 047f 042d 137f c822 48a2
00000010: 29e3 1e19 89cb 7f50 f508 6130 7cfb 7a24
00000020: 142d 8160 7f51 9d37 cdb3 409f ad3f 453c
00000030: f916 6cf0 0d7f b1e2 51c5 d5e5 04ce 8131
00000040: 60be f34e 05e3 7fb5 8f08 629b ec7f 8438
00000050: 6d51 1047 4331 d50f 7f9f f4fb e1de 8127
00000060: a320 74fe 813b e4e0 d632 33b9 ce30 81db
00000070: b2fc 1ed1 b7de 404b 814c eb60 c29e c016
00000080: e8cf 5202 bc7f a581 20ca f924 4b7c f435
00000090: 9cf9 0baa b2f0 8196 98cd df37 14d9 ff16
000000a0: 3381 c443 8109 afcd 7cbd d710 53fa e34e
000000b0: 4eff 7f3f 0eb9 cd40 d9ba 341d 8142 2c7f
000000c0: 1f18 5d59 9df8 8155 2223 e270 4f62 ba2e
000000d0: d485 4837 4087 2a7f d736 7fed 302d 24e9
000000e0: a84e 7f8a 1c17 bb52 489d 7fe4 f9dd 2d29
000000f0: 9df5 2a41 9bdc 0c0c c26a 2481 7fc5 33df
70 -31 -81 -88 28 55 4 127
4 45 19 127 -56 34 72 -94
41 -29 30 25 -119 -53 127 80
-11 8 97 48 124 -5 122 36
20 45 -127 96 127 81 -99 55
-51 -77 64 -97 -83 63 69 60
-7 22 108 -16 13 127 -79 -30
81 -59 -43 -27 4 -50 -127 49
96 -66 -13 78 5 -29 127 -75
-113 8 98 -101 -20 127 -124 56
109 81 16 71 67 49 -43 15
127 -97 -12 -5 -31 -34 -127 39
-93 32 116 -2 -127 59 -28 -32
-42 50 51 -71 -50 48 -127 -37
-78 -4 30 -47 -73 -34 64 75
-127 76 -21 96 -62 -98 -64 22
-24 -49 82 2 -68 127 -91 -127
32 -54 -7 36 75 124 -12 53
-100 -7 11 -86 -78 -16 -127 -106
-104 -51 -33 55 20 -39 -1 22
51 -127 -60 67 -127 9 -81 -51
124 -67 -41 16 83 -6 -29 78
78 -1 127 63 14 -71 -51 64
-39 -70 52 29 -127 66 44 127
31 24 93 89 -99 -8 -127 85
34 35 -30 112 79 98 -70 46
-44 -123 72 55 64 -121 42 127
-41 54 127 -19 48 45 36 -23
-88 78 127 -118 28 23 -69 82
72 -99 127 -28 -7 -35 45 41
-99 -11 42 65 -101 -36 12 12
-62 106 36 -127 127 -59 51 -33
